…
eras.layers.Flatten(), tf.keras.layers.Dense(128, activation='relu'), tf.keras.layers.Dense(10, activation='softmax')])model.compile(optimizer='adam', loss='sparse_categorical_crossentropy', metrics=['accuracy'])callbacks = myCallback()model.fit(training_images, training_labels, epochs=5, callbacks=[callbacks])test_loss = model.evaluate(test_images, test_labels)\nmodel.summary() # model detail\nModel: \"sequential_1\"_________________________________________________________________Layer (type) Output Shape Param #=================================================================conv2d (Conv2D) (None, 26, 26, 64) 640 # for every image, 64 convolution has been tried # 26 (=28-2) because we use 3x3 filter and we can't # count on edges, so the picture is 2 smaller on x and y. # if 5x5 filter => 4 smaller on x and y._________________________________________________________________max_pooling2d (MaxPooling2D) (None, 13, 13, 64) 0_________________________________________________________________conv2d_1 (Conv2D) (None, 11, 11, 64) 36928_________________________________________________________________max_pooling2d_1 (MaxPooling2 (None, 5, 5, 64) 0_________________________________________________________________flatten_1 (Flatten) (None, 1600) 0_________________________________________________________________dense_2 (Dense) (None, 128) 204928_________________________________________________________________dense_3 (Dense) (None, 10) 1290=================================================================Total params: 243,786Trainable params: 243,786Non-trainable params: 0\nRefs:\n\n\nKernel in image processing: examples with images.\nPooling layer: non-linear down-sampling.\n\nMore?\n\n\n\nImage Filtering -- Lode's Computer Graphics Tutorial\n\n\nApplying Convolutions on top of our Deep neural network will make training =&gt; It dep
…
